…
b":{"base_uri":"https://localhost:8080/"},"executionInfo":{"elapsed":6992,"status":"ok","timestamp":1692441833609,"user":{"displayName":"Sarah ElShafie","userId":"07949154547274026284"},"user_tz":-180},"id":"0DZtSDSvaE_Q","outputId":"6a06a641-5945-4064-c0c7-2350585aeed1"},"outputs":[{"output_type":"stream","name":"stdout","text":["Model: \"sequential_3\"\n","_________________________________________________________________\n"," Layer (type)                Output Shape              Param #   \n","=================================================================\n"," densenet201 (Functional)    (None, 1, 2, 1920)        18321984  \n","                                                                 \n"," flatten_2 (Flatten)         (None, 3840)              0         \n","                                                                 \n"," batch_normalization_4 (Batc  (None, 3840)             15360     \n"," hNormalization)                                                 \n","                                                                 \n"," dropout_4 (Dropout)         (None, 3840)              0         \n","                                                                 \n"," dense_4 (Dense)             (None, 512)               1966592   \n","                                                                 \n"," batch_normalization_5 (Batc  (None, 512)              2048      \n"," hNormalization)                                                 \n","                                                                 \n"," dropout_5 (Dropout)         (None, 512)               0         \n","                                                                 \n"," dense_5 (Dense)             (None, 1)                 513       \n","                                                                 \n","=================================================================\n","Total params: 20,306,497\n","Trainable params: 1,975,809\n","Non-trainable params: 18,330,688\n","_________________________________________________________________\n"]}],"source":["from tensorflow.keras.regularizers import L1\n","\n","dense = tf.ke
…
