…
aE_Q","outputId":"4ffc1f5f-fc7d-49f1-9c2c-ceeb42844db7"},"outputs":[{"output_type":"stream","name":"stdout","text":["Downloading data from https://storage.googleapis.com/tensorflow/keras-applications/resnet/resnet50v2_weights_tf_dim_ordering_tf_kernels_notop.h5\n","94668760/94668760 [==============================] - 1s 0us/step\n","Model: \"sequential\"\n","_________________________________________________________________\n"," Layer (type)                Output Shape              Param #   \n","=================================================================\n"," resnet50v2 (Functional)     (None, 2, 3, 2048)        23564800  \n","                                                                 \n"," global_max_pooling2d (Globa  (None, 2048)             0         \n"," lMaxPooling2D)                                                  \n","                                                                 \n"," batch_normalization (BatchN  (None, 2048)             8192      \n"," ormalization)                                                   \n","                                                                 \n"," dropout (Dropout)           (None, 2048)              0         \n","                                                                 \n"," dense (Dense)               (None, 512)               1049088   \n","                                                                 \n"," batch_normalization_1 (Batc  (None, 512)              2048      \n"," hNormalization)                                                 \n","                                                                 \n"," dropout_1 (Dropout)         (None, 512)               0         \n","                                                                 \n"," dense_1 (Dense)             (None, 1)                 513       \n","                                                                 \n","=================================================================\n","Total params: 24,624,641\n","Trainable params: 1,054,721\n","Non-trainable params: 23,569,920\n","_________________________________________________________________\n"]}],"source":["from tensorflow.keras.regularizers import L2\n","\n","resnet = tf.k
…
